<?xml version="1.0" ?>
<net batch="1" name="acute_infract_predict" version="6">
	<layers>
		<layer id="0" name="conv2d_input" precision="FP32" type="Input">
			<output>
				<port id="0">
					<dim>1</dim>
					<dim>3</dim>
					<dim>32</dim>
					<dim>32</dim>
				</port>
			</output>
		</layer>
		<layer id="1" name="conv2d/Conv2D" precision="FP32" type="Convolution">
			<data auto_pad="valid" dilations="1,1" group="1" kernel="4,4" output="8" pads_begin="0,0" pads_end="0,0" strides="1,1"/>
			<input>
				<port id="0">
					<dim>1</dim>
					<dim>3</dim>
					<dim>32</dim>
					<dim>32</dim>
				</port>
			</input>
			<output>
				<port id="3">
					<dim>1</dim>
					<dim>8</dim>
					<dim>29</dim>
					<dim>29</dim>
				</port>
			</output>
			<blobs>
				<weights offset="0" size="1536"/>
				<biases offset="1536" size="32"/>
			</blobs>
		</layer>
		<layer id="2" name="conv2d/Relu" precision="FP32" type="ReLU">
			<input>
				<port id="0">
					<dim>1</dim>
					<dim>8</dim>
					<dim>29</dim>
					<dim>29</dim>
				</port>
			</input>
			<output>
				<port id="1">
					<dim>1</dim>
					<dim>8</dim>
					<dim>29</dim>
					<dim>29</dim>
				</port>
			</output>
		</layer>
		<layer id="3" name="max_pooling2d/MaxPool" precision="FP32" type="Pooling">
			<data auto_pad="valid" exclude-pad="true" kernel="4,4" pads_begin="0,0" pads_end="0,0" pool-method="max" strides="4,4"/>
			<input>
				<port id="0">
					<dim>1</dim>
					<dim>8</dim>
					<dim>29</dim>
					<dim>29</dim>
				</port>
			</input>
			<output>
				<port id="1">
					<dim>1</dim>
					<dim>8</dim>
					<dim>7</dim>
					<dim>7</dim>
				</port>
			</output>
		</layer>
		<layer id="4" name="max_pooling2d/MaxPool/Transpose" precision="FP32" type="Permute">
			<data order="0,2,3,1"/>
			<input>
				<port id="0">
					<dim>1</dim>
					<dim>8</dim>
					<dim>7</dim>
					<dim>7</dim>
				</port>
			</input>
			<output>
				<port id="1">
					<dim>1</dim>
					<dim>7</dim>
					<dim>7</dim>
					<dim>8</dim>
				</port>
			</output>
		</layer>
		<layer id="5" name="75/Output_0/Data__const" precision="I32" type="Const">
			<output>
				<port id="1">
					<dim>2</dim>
				</port>
			</output>
			<blobs>
				<custom offset="1568" size="8"/>
			</blobs>
		</layer>
		<layer id="6" name="flatten/Reshape" precision="FP32" type="Reshape">
			<input>
				<port id="0">
					<dim>1</dim>
					<dim>7</dim>
					<dim>7</dim>
					<dim>8</dim>
				</port>
				<port id="1">
					<dim>2</dim>
				</port>
			</input>
			<output>
				<port id="2">
					<dim>1</dim>
					<dim>392</dim>
				</port>
			</output>
		</layer>
		<layer id="7" name="dense/MatMul" precision="FP32" type="FullyConnected">
			<data out-size="150"/>
			<input>
				<port id="0">
					<dim>1</dim>
					<dim>392</dim>
				</port>
			</input>
			<output>
				<port id="3">
					<dim>1</dim>
					<dim>150</dim>
				</port>
			</output>
			<blobs>
				<weights offset="1576" size="235200"/>
				<biases offset="236776" size="600"/>
			</blobs>
		</layer>
		<layer id="8" name="dense/Relu" precision="FP32" type="ReLU">
			<input>
				<port id="0">
					<dim>1</dim>
					<dim>150</dim>
				</port>
			</input>
			<output>
				<port id="1">
					<dim>1</dim>
					<dim>150</dim>
				</port>
			</output>
		</layer>
		<layer id="9" name="dense_1/MatMul" precision="FP32" type="FullyConnected">
			<data out-size="46"/>
			<input>
				<port id="0">
					<dim>1</dim>
					<dim>150</dim>
				</port>
			</input>
			<output>
				<port id="3">
					<dim>1</dim>
					<dim>46</dim>
				</port>
			</output>
			<blobs>
				<weights offset="237376" size="27600"/>
				<biases offset="264976" size="184"/>
			</blobs>
		</layer>
		<layer id="10" name="dense_1/Softmax" precision="FP32" type="SoftMax">
			<data axis="1"/>
			<input>
				<port id="0">
					<dim>1</dim>
					<dim>46</dim>
				</port>
			</input>
			<output>
				<port id="1">
					<dim>1</dim>
					<dim>46</dim>
				</port>
			</output>
		</layer>
	</layers>
	<edges>
		<edge from-layer="0" from-port="0" to-layer="1" to-port="0"/>
		<edge from-layer="1" from-port="3" to-layer="2" to-port="0"/>
		<edge from-layer="2" from-port="1" to-layer="3" to-port="0"/>
		<edge from-layer="3" from-port="1" to-layer="4" to-port="0"/>
		<edge from-layer="4" from-port="1" to-layer="6" to-port="0"/>
		<edge from-layer="5" from-port="1" to-layer="6" to-port="1"/>
		<edge from-layer="6" from-port="2" to-layer="7" to-port="0"/>
		<edge from-layer="7" from-port="3" to-layer="8" to-port="0"/>
		<edge from-layer="8" from-port="1" to-layer="9" to-port="0"/>
		<edge from-layer="9" from-port="3" to-layer="10" to-port="0"/>
	</edges>
	<meta_data>
		<MO_version value="2019.3.0-408-gac8584cb7"/>
		<cli_parameters>
			<blobs_as_inputs value="False"/>
			<data_type value="float"/>
			<disable_nhwc_to_nchw value="False"/>
			<disable_resnet_optimization value="False"/>
			<enable_concat_optimization value="False"/>
			<extensions value="DIR"/>
			<framework value="tf"/>
			<freeze_placeholder_with_value value="{}"/>
			<generate_experimental_IR_V10 value="False"/>
			<input_model value="DIR\pro.pb"/>
			<input_model_is_text value="False"/>
			<input_shape value="[1,32,32,3]"/>
			<keep_quantize_ops_in_IR value="False"/>
			<keep_shape_ops value="False"/>
			<log_level value="ERROR"/>
			<mean_scale_values value="{}"/>
			<mean_values value="()"/>
			<model_name value="acute_infract_predict"/>
			<move_to_preprocess value="False"/>
			<output_dir value="DIR"/>
			<placeholder_shapes value="[ 1 32 32  3]"/>
			<reverse_input_channels value="False"/>
			<scale_values value="()"/>
			<silent value="False"/>
			<steps value="False"/>
			<version value="False"/>
			<unset unset_cli_parameters="batch, disable_fusing, disable_gfusing, finegrain_fusing, generate_deprecated_IR_V2, input, input_checkpoint, input_meta_graph, output, saved_model_dir, saved_model_tags, scale, tensorboard_logdir, tensorflow_custom_layer_libraries, tensorflow_custom_operations_config_update, tensorflow_object_detection_api_pipeline_config, tensorflow_operation_patterns, tensorflow_subgraph_patterns, tensorflow_use_custom_operations_config"/>
		</cli_parameters>
	</meta_data>
</net>
